NC-Final/best_mlp_weights.pth (torch, 66796 bytes, 7 tensors)

fc1.weight f4 [128, 42]
000000 27 1c 96 3d 00 3f 7f 3e 00 7b c6 3d ee 20 02 bd
       0.073295884 0.24926376 0.09691429 -0.031769685
000010 b8 80 46 bd 0f 35 c8 3c a1 20 83 be 28 fb 52 bd
       -0.0484626 0.024439363 -0.2561083 -0.051509053
000020 9d 2b 6e bd cf 13 07 3d d1 3d 40 3e ab ae 00 3e
       -0.05814706 0.032977875 0.18773581 0.1256663
000030 00 0c a3 bb 0f 61 70 3e fd 8c dc 3c ed 48 bf 3d
       -0.0049757957 0.23474525 0.026922697 0.09340081
000040 5c 31 64 3e 55 c1 2c 3e 38 4f b9 3c 68 4e 2d 3e
       0.22284454 0.16870625 0.022620782 0.16924441
000050 ce c8 01 3e 89 3d 5b bd bd 76 7c bc f9 60 f0 3d
       0.12674257 -0.05352548 -0.015409169 0.11737246
000060 4b b2 52 be f4 25 96 3d 91 16 ed 3d 1f 49 8b 3e
       -0.20575826 0.07331458 0.1157657 0.27204224
000070 24 bb 9a 3d af 7a 06 bd eb 1c eb 3b 12 c6 e0 bd
       0.075552255 -0.032831844 0.007175078 -0.10975279
000080 96 a3 dd bd 56 1b 2a be 5b b0 36 3e 0d e9 31 3d
       -0.10822217 -0.1661199 0.17840712 0.043435145
000090 d8 bb b2 bd 97 ac d6 bd 0c f3 8f be f5 d1 91 3d
       -0.087272346 -0.10482138 -0.28115118 0.07120124
0000a0 09 c6 21 3e 68 b1 0a bd fd 52 26 3d 8a 05 06 be
       0.157982 -0.033860594 0.040606488 -0.1308805
0000b0 f7 ca 10 3d 5d b1 41 3d d7 12 f2 bd 6f 4d 3a 3b
       0.035349812 0.047288287 -0.1182 0.0028427502
0000c0 33 34 31 3d d2 4d 02 bd 52 ad 0a be e5 45 ae bd
       0.04326267 -0.031812496 -0.13542679 -0.08509425
0000d0 33 0e 5d be b1 61 25 3d 0b 96 85 be 3d 8e 63 bd
       -0.21587448 0.04037637 -0.26091036 -0.05555557
0000e0 ac dc fe 3b c0 8b 01 3e dc 08 8e 3d 1b 2e 2f 3d
       0.007777771 0.12650967 0.069352835 0.04276858
0000f0 92 7f 99 bd 28 c8 14 3d 71 3c 2b bb 7d bd 88 3d
       -0.07495035 0.036323696 -0.0026128555 0.06676767
000100 08 b8 c2 3d 90 81 06 be 6a ae b4 bd 66 b0 e0 3c
       0.095077574 -0.13135362 -0.08822329 0.027427863
000110 9a 1f 33 be a2 a1 b6 3d 17 b4 61 3e 21 39 ba bc
       -0.17492524 0.08917548 0.22041355 -0.02273232
000120 08 a1 07 bb 42 51 f2 3d 50 9f 50 3a f8 f7 2a be
       -0.0020695347 0.11831905 0.000795831 -0.16696155
000130 29 bf 0c 3b 5d a3 36 3e 56 3b 9d 3b 96 3c 0d 3c
       0.0021476245 0.17835756 0.004798333 0.008620402
000140 cc d2 fb 3c ca d6 4a be d2 7b 09 bd 76 3f f8 3c
       0.030740164 -0.19808498 -0.03356535 0.030303698
000150 e8 c9 0b 3d 08 94 2f 3d 69 21 36 bc bd aa 45 3e
       0.0341281 0.042865783 -0.011116364 0.19303413
000160 95 d9 9a ba 7b 40 0a be e3 b6 7a 3d b8 68 1c bd
       -0.0011814112 -0.1350116 0.06120957 -0.038185805
000170 12 90 00 be 76 46 95 3e 37 8d 48 bd 70 30 9a 3c
       -0.12554958 0.2915532 -0.048962798 0.018821925
000180 2a 0b f7 3d b0 b8 99 3d 8c a2 48 3e e3 19 31 3d
       0.12062676 0.075059295 0.19593257 0.043237578
000190 bf f3 a6 bd 80 56 e6 3d df 63 11 be 68 73 00 3e
       -0.0815196 0.11246967 -0.14198254 0.12544024
0001a0 a3 f5 07 3e 36 eb 0f bb ad a6 08 3e 68 96 d5 bd
       0.13277297 -0.0021960265 0.13344832 -0.10429078
0001b0 cd e9 da 3d 99 bf 32 be 3e 08 c3 3d 66 05 57 3e
       0.10689125 -0.17455901 0.095230564 0.20998153
0001c0 b6 5d 7c 3d fd d9 1a bc 68 eb 08 3e 68 56 fe 3d
       0.061612807 -0.0094513865 0.1337105 0.124188244
0001d0 5a e4 98 3d 7e b5 b9 3d 6e 39 35 be 8a a8 67 3e
       0.074654296 0.0906782 -0.17697689 0.22622886
0001e0 52 66 20 3d ce 1c fc 3c ef df 80 3d 70 54 06 3d
       0.03916008 0.030775454 0.06292712 0.03279537
0001f0 b3 43 e0 bb 4c b5 0a 3d 95 52 e7 3b 9f 71 3d bb
       -0.006844008 0.033864304 0.007059405 -0.0028906835
000200 74 d8 49 bc 54 d4 3d 3d fb ea 3b 3e ba 30 8a bd
       -0.012319673 0.04634507 0.18351357 -0.06747575
000210 71 94 ac 3d f4 a9 12 be d9 34 74 3e 5f 81 1d 3d
       0.084267505 -0.14322644 0.23848285 0.038453456
000220 10 70 fc bd 40 ae 3a 3d 50 6e 92 bd 53 4a 54 bc
       -0.12326062 0.045576334 -0.07149947 -0.012957173
000230 0c 56 4c bd 77 9f 9f bd 3d 8f 93 3d 75 bc 68 bd
       -0.04988675 -0.077940874 0.07205055 -0.05682035
000240 93 74 23 3e 15 18 f1 3c b5 f4 cb 3d 96 53 97 bc
       0.15962438 0.029430429 0.099587835 -0.018472474
000250 74 15 f9 bd 39 60 d4 3c 80 48 9f 3b 15 90 0a 3e
       -0.12162295 0.025924789 0.0048609376 0.13531525
000260 1a f6 26 3e 2c 90 e6 3d ff 86 31 3d a0 f0 59 3d
       0.16304818 0.11257967 0.043341633 0.053207994
000270 36 78 1e 3e 1f 71 67 be 9c ee 58 bd 57 eb b9 bd
       0.15475544 -0.22601746 -0.05296193 -0.09078091
000280 1b 67 39 3e d6 9e 00 be 20 b2 5c 3d 3a 66 3a 3e
       0.18105738 -0.12560591 0.05388081 0.18203059
000290 45 74 c6 bc e1 52 38 be d2 a7 0e 3e ae 29 14 bc
       -0.024225364 -0.18000366 0.13931206 -0.00904314
0002a0 8a 06 1c 3e f8 fa 31 bd 89 00 0b be e5 33 1d be
       0.1523687 -0.043452233 -0.13574423 -0.15351827
0002b0 b5 1a 29 3e 31 c4 a3 bc f5 29 d4 bd b7 7e 89 3c
       0.16514094 -0.019991012 -0.10359565 0.016784055
0002c0 84 67 2b 3e 3e 5d 2f bc d5 55 75 3d 1b bb b4 3d
       0.16738707 -0.010703383 0.05989631 0.0882475
0002d0 e4 1f dc bc ce ab 70 be 20 e0 e7 bd 6b 0a b5 3c
       -0.026870675 -0.23503038 -0.11322045 0.022099694
0002e0 98 db 04 bd cf 9d bf 3d cb 3a 8d bb cc 97 b2 bd
       -0.032435983 0.093562715 -0.004309987 -0.08720359
0002f0 e3 71 84 3e 1d 2b d2 bc 87 94 c6 3d 92 88 22 3e
       0.2586814 -0.025655324 0.09696298 0.1587241
000300 cf 45 fd 3d 83 59 9b bd 56 8b 19 3e d0 bc 5d bc
       0.123668306 -0.075854324 0.14994559 -0.013533786
000310 f7 f0 75 3e 4e 5e 3d be cd 14 71 3e 78 f7 d5 bd
       0.24017702 -0.18493006 0.23543091 -0.104475915
000320 11 49 2b be 70 7a 20 be 5c 37 cb 3d 0f 43 87 3d
       -0.16727091 -0.15671706 0.09922668 0.06604587
000330 53 33 7d 3d 46 21 2d 3e 75 46 1f bd dd 52 c4 be
       0.061816525 0.16907224 -0.038885552 -0.3834447
000340 86 83 77 3e a1 e7 43 3e c2 cc 0c be 5e 08 84 3d
       0.24171266 0.19131328 -0.13749984 0.064469084
000350 96 de 9b bb 9a fa 96 bd 69 5e 52 3d 86 24 d3 3c
       -0.004756759 -0.07372017 0.051359568 0.025774252
000360 aa df 7d 3c 03 46 12 be c6 e4 c2 3d 6b 88 c0 3c
       0.01549522 -0.1428452 0.09516291 0.02350255
000370 ff e8 c7 3d bd 12 96 bd 52 56 f8 bd 74 42 26 bc
       0.09761237 -0.07327793 -0.12125839 -0.01014768
000380 b1 67 b2 3c ad 63 0c 3e de 41 4f bd e5 d7 0b be
       0.02177796 0.13709898 -0.050599925 -0.13656576
000390 54 fe 3c 3e 6e ac 73 3d 97 ab ad bd 3d f1 e0 bd
       0.18456393 0.059490614 -0.08479994 -0.109835126
0003a0 d9 9e ca bd 2c bd 1c 3d 94 e6 9a 3a 4b a4 98 bd
       -0.09893579 0.038266346 0.0011817985 -0.074532114
0003b0 18 97 06 bd c9 86 13 3e da 1b df 3c d8 b2 d2 3d
       -0.032858938 0.14406885 0.02723496 0.10288018
0003c0 15 8a 71 3e c6 b5 ac 3d fa 0a 67 be 3f 60 a2 3d
       0.2358783 0.08433108 -0.22562781 0.07928514
0003d0 c5 75 88 bd 19 27 09 3d 27 75 08 3e 96 4d 74 be
       -0.06663088 0.033484552 0.1332594 -0.23857722
0003e0 f7 b3 72 bd d9 48 85 3d 4e 7c 01 bd bb c8 91 3d
       -0.05925366 0.06508035 -0.031612687 0.071183644
0003f0 b2 89 78 3d c8 5a 15 3d 40 65 88 bd 1e 4e 76 bd
       0.06067819 0.03646353 -0.06659937 -0.060133092

fc1.bias f4 [128]
000000 e7 02 3a 3c 57 d9 7b bd 8f 1b 91 be 9d fd 17 be
       0.011353231 -0.06148657 -0.28341338 -0.1484284
000010 af 16 84 be d4 5c df 3c bf df 41 be c3 50 3e be
       -0.25798556 0.027265944 -0.18933009 -0.18585496
000020 a9 e8 2b be cf 69 9c bd 52 ff a9 3d fd 89 87 be
       -0.16787972 -0.07637369 0.083006516 -0.26472464
000030 9f 5e 6d be 4a 1d a0 be 20 09 2c bd e6 14 85 be
       -0.23180626 -0.31272346 -0.04200089 -0.25992507
000040 4c cc 84 be 54 1b 10 be 32 6e 25 be 34 37 a7 3c
       -0.25937116 -0.14072925 -0.16155317 0.020412065
000050 da 16 e2 bc e1 ff c2 be 7c 6a b8 be d2 f1 00 3d
       -0.027598787 -0.38085845 -0.3601874 0.031480618
000060 b4 04 28 be 9e 3f 6d be 01 2b 33 be f8 01 55 be
       -0.16408044 -0.231688 -0.17496873 -0.20801532
000070 4a 91 9b be cf a3 1d be d5 70 46 be 86 1b b1 be
       -0.30384284 -0.1539452 -0.1937898 -0.3459131
000080 9e 58 d8 bc d0 82 9d 3d 1a 33 64 3d 21 0f 0e be
       -0.026409443 0.07690966 0.055712797 -0.13872959
000090 37 47 2b 3d 24 2d 99 be ae be 4d 3c a2 5c 87 bd
       0.041815963 -0.29917252 0.012557669 -0.06609465
0000a0 a6 46 96 be c1 18 34 3d dd a0 b4 bd 68 cc 00 be
       -0.29350775 0.04396892 -0.08819745 -0.12577975
0000b0 e7 da 4c be 64 b5 7c be 66 3d fb bd ee 7e da bd
       -0.2000538 -0.2467857 -0.1226757 -0.10668741
0000c0 e1 ee f9 bc a6 5a a8 be ab 99 d9 bd c6 e1 1c bd
       -0.030509414 -0.3288166 -0.10625013 -0.03830125
0000d0 db 0b a3 be 96 f6 bd be 3e c1 85 bd 1a 34 3c bd
       -0.31844983 -0.37102193 -0.06530999 -0.045948125
0000e0 9e 80 ad bd 29 d8 69 be 2d 8b 18 3e 0e de 1b be
       -0.084717974 -0.22836365 0.14896841 -0.15221426
0000f0 3e f5 28 be 64 9d 93 be 12 b3 ec bd ca a7 bc bd
       -0.16499802 -0.28831017 -0.115575925 -0.09211691
000100 0c 4f 88 3d 74 e7 6a be 2e 9f a2 be 58 6d 9c bd
       0.06655702 -0.22939855 -0.3176207 -0.07638043
000110 9d 81 8a be a8 0a aa be 4e 64 ba be cd 23 70 be
       -0.27052012 -0.33211255 -0.3640465 -0.23451157
000120 d3 48 a7 be 5f ed f0 bc 7d 0c 82 be 1a e1 81 be
       -0.32672748 -0.029410062 -0.25400153 -0.2536705
000130 a4 a6 ae bd db 85 a7 be db 17 a8 bd 4e 27 e7 bd
       -0.08527878 -0.3271931 -0.08207675 -0.11286794
000140 1f 73 7c 3d 9a 69 8d be 87 19 96 bd c0 88 6d 3b
       0.061633226 -0.2761963 -0.07329088 0.003624484
000150 e4 c6 12 be a4 4e 04 be fb e9 4a be ed 2b 9d be
       -0.14333683 -0.12920624 -0.19815819 -0.30697575
000160 2b bd 3b 3d 1d 1a da bd 7d 27 0a be 5b e5 33 be
       0.0458347 -0.10649512 -0.13491626 -0.17567961
000170 86 7d e7 bd 1b 6f d8 bd e4 3d ba bd 50 7e a3 3a
       -0.113032386 -0.10568067 -0.09093836 0.0012473557
000180 57 22 a6 be e6 2c 39 3d 3d b1 89 be c1 b6 77 3d
       -0.32448074 0.045208834 -0.26893035 0.060477022
000190 c8 62 38 3d 0c b1 b5 3c e7 77 aa 3d 9f f6 dd bc
       0.04501608 0.02217915 0.08323651 -0.027095137
0001a0 a6 3a 76 bd 0c e0 15 be b8 b0 8a be 6c f1 87 be
       -0.060114525 -0.14636248 -0.2708795 -0.26551378
0001b0 05 66 88 be e3 46 f4 bd 6b 2e 82 bb 4b 35 51 be
       -0.26640335 -0.11927583 -0.0039728186 -0.20430486
0001c0 0b b1 ab be a8 ea 38 3c 21 e2 ac bd 5c a2 81 bc
       -0.3353351 0.011286415 -0.08441568 -0.01582449
0001d0 6d 06 a6 3d 0b f5 24 be 40 2a 82 be e2 9e 6e be
       0.08106694 -0.16109101 -0.2542286 -0.23302796
0001e0 a4 a2 0c be 47 cc 25 bd 48 5a d3 3d 39 02 c9 bd
       -0.13733917 -0.040478017 0.10319954 -0.09814877
0001f0 c1 9b d2 be 5f f3 1e be 48 9e 8b be 04 a8 55 bd
       -0.41134456 -0.15522526 -0.27269197 -0.052162185

fc2.weight f4 [64, 128]
000000 a4 d4 21 be 8a f9 86 bd b1 8d b3 3d eb 2f 37 3d
       -0.15803772 -0.065905645 0.0876726 0.044723433
000010 93 dd 25 3e 58 02 8f bd 5d a3 63 3d 55 97 37 bd
       0.16197805 -0.06982869 0.055575717 -0.044822056
000020 e7 e1 f6 bd 58 33 08 be cf 20 ca bd 6d 7f b6 3d
       -0.12054806 -0.13300836 -0.09869539 0.08911023
000030 d9 a9 78 3e 80 71 b9 3e 72 99 04 3d c8 85 19 3e
       0.24283542 0.36219406 0.0323729 0.1499244
000040 bc f4 f0 3d a2 fd 0b be 15 db d1 3d 15 cf f6 bd
       0.117654294 -0.13670972 0.10246865 -0.120512165
000050 03 63 76 bc 73 88 79 3e 48 54 bb 3d 10 a7 27 ba
       -0.015038255 0.24368457 0.09146935 -0.00063954387
000060 26 b6 da 3a 46 6e e7 3d e9 67 34 3d df 5f 2a bd
       0.0016686365 0.1130033 0.04404441 -0.041595336
000070 e3 1d 01 be c9 33 36 3d 0b 46 3e 3e f1 1a 8b 3e
       -0.12609057 0.04448298 0.18581407 0.27168992
000080 ff 3e ec 3d 69 c0 32 bb eb 94 0e bd b4 78 05 be
       0.11535453 -0.002727533 -0.034809988 -0.13034326
000090 64 40 f2 3b 01 9e 6a 3e 68 06 ad bd a8 99 14 bc
       0.00739293 0.22911836 -0.084484875 -0.009069838
0000a0 ef dc ff 3d 30 9a d6 bc 21 12 79 3d 82 18 19 be
       0.124933116 -0.02619657 0.060808305 -0.14950755
0000b0 ba e3 3d 3e 19 f3 9e bd 33 a8 f8 3c 9a 49 e1 3d
       0.18543902 -0.07761211 0.030353641 0.110003665
0000c0 1d c3 ce bd e1 86 90 3e af 13 c0 3d c9 b9 ca bd
       -0.10095809 0.28227904 0.09378754 -0.09898717
0000d0 d3 b7 ba 3d 79 a8 95 3e 61 5c a8 bb e3 cd 00 3d
       0.09117093 0.29230097 -0.0051379655 0.03144635
0000e0 9e 4f 81 3d 47 ab b9 3d ff 3e 3d be d7 70 3a 3b
       0.06314014 0.09065872 -0.18481062 0.0028448605
0000f0 68 c7 2c 3d 51 bd 82 3e 6e 60 45 3e a7 ed 14 be
       0.042182356 0.25535062 0.19275066 -0.14543782
000100 22 33 57 bc 8a bc ba 3d 15 87 7d 3e ed ef 09 be
       -0.01313475 0.09117992 0.24758561 -0.1347043
000110 12 44 8c 3e 82 68 7b 3e 1b b9 09 3e e4 3c 80 3e
       0.27395684 0.24551585 0.13449518 0.25046456
000120 5f bd 20 3d 5f 4b 08 3d ec 66 67 3d ce a1 cf 3d
       0.0392431 0.033275004 0.05649464 0.10138284
000130 7e 48 98 3a d8 df a7 3d b8 09 b8 3d 6f 63 0b 3e
       0.0011618284 0.08196992 0.08986229 0.1361215
000140 cd 8c cd bc 91 32 a8 3d 0d fa d1 bc 64 b3 b4 bd
       -0.025091553 0.0821277 -0.025631929 -0.088232785
000150 10 c9 91 bd c5 c2 ba 3d 6a c1 3e 3e cd 29 3d 3e
       -0.07118428 0.091191806 0.18628469 0.18472977
000160 47 9d 26 3d 67 d5 94 bd 8d bf ce bc ec be f6 3d
       0.040677335 -0.07267266 -0.025237823 0.12048134
000170 92 8c cc 3a b7 61 13 3e 00 32 e3 3c 1f f0 2f bd
       0.0015605858 0.14392744 0.027733803 -0.042953607
000180 b0 d3 84 3e e7 82 87 bd 38 5f d0 3d e9 1b f3 bb
       0.25942755 -0.066167645 0.101744115 -0.0074190986
000190 f1 c2 15 bd cc 56 44 3d 10 7e 48 be 14 d0 aa 3d
       -0.036562864 0.04793434 -0.19579339 0.08340469
0001a0 40 f0 c3 bc 36 05 ee 3c a8 2c 87 3e c0 46 25 3e
       -0.023918271 0.02905522 0.26401258 0.1614027
0001b0 3a 04 b4 3e fa 74 21 bb e4 a8 9a bd 6b b5 41 3e
       0.35159475 -0.0024636374 -0.075517446 0.18916862
0001c0 6a 49 fc 3d 3e b2 45 bd db 44 d1 bc 7b a2 6a 3d
       0.1231869 -0.048265688 -0.025545528 0.05728386
0001d0 e3 49 81 bc 4b 8c a2 3d 62 57 47 3e fb c1 79 3e
       -0.015782302 0.07936915 0.19466928 0.24390404
0001e0 1d 1a f0 3d 85 c9 93 bd 78 3b 46 bd 11 91 d6 3d
       0.11723731 -0.07216171 -0.048396558 0.10476888
0001f0 66 76 84 3e b5 09 30 bd a2 c5 8a 3d 7b 8b 3d be
       0.2587158 -0.042978007 0.06775977 -0.18510239
000200 d3 30 1f be ae 9e fb 3b 52 19 29 3d 65 4e cc bc
       -0.15545969 0.007678828 0.041283913 -0.024939725
000210 b4 13 ed 3d 82 27 31 ba 85 09 14 bd 78 54 88 bd
       0.11576024 -0.0006757901 -0.03614189 -0.06656736
000220 cf 92 b0 bd 1e 29 6e bd 5a d0 4a bb 68 36 ce 3d
       -0.086217515 -0.05814468 -0.003094694 0.10068971
000230 71 f7 14 3e 4a 99 2f 3e 37 68 8e 3d 7e 39 be 3c
       0.14547516 0.17148319 0.06953471 0.023220774
000240 cb 14 38 3d 10 3f 9d bd 50 37 94 3d 8a c9 c0 bd
       0.044941705 -0.07678044 0.072371125 -0.094134405
000250 29 27 41 bc ae bb a3 3d 79 ed ea 3d 6b b0 81 3c
       -0.011789122 0.079947814 0.114710756 0.015831193
000260 44 93 b6 bd 44 8c e4 3d fe 43 c6 3d e5 4e c1 bc
       -0.089148074 0.11159566 0.09680937 -0.02359719
000270 e5 77 97 bd e0 aa 1b 3e 6e b4 8b 3d ba 8b c3 3d
       -0.07395915 0.15201902 0.068215236 0.09548135
000280 00 b8 75 bd 58 44 0f bd a0 fe 37 bd 7d 51 18 be
       -0.05998993 -0.034977287 -0.044920564 -0.14874835
000290 31 ac 77 bd 8d af e4 3d 9f d3 44 bd a3 d3 8b bd
       -0.06046695 0.11166296 -0.04805338 -0.06827476
0002a0 81 b7 42 3d aa 8e 06 bc 81 ac 11 3e 02 59 31 bd
       0.047538284 -0.008212725 0.14225961 -0.043297775
0002b0 f6 ea 30 3e f8 43 ff bd 3e f6 ba bd 44 f6 84 3b
       0.1727713 -0.12464136 -0.09128998 0.0040576775
0002c0 9b 59 89 bd 91 a9 4c 3e b7 c5 2c bd 33 c5 a7 bd
       -0.06706544 0.1998656 -0.042180743 -0.0819191
0002d0 a1 be 85 3d 7e 57 20 3d 6c 28 2a bd f4 01 8a 3c
       0.065305 0.03914594 -0.041542456 0.016846634
0002e0 1f fc 0c 3d 8e 95 d8 3c ee 28 8a bd 0c eb 85 bc
       0.03442013 0.0264385 -0.06746088 -0.01634743
0002f0 a3 93 c6 bc 33 58 33 3e 13 3d a5 3d d4 79 57 bd
       -0.02424032 0.17514114 0.080682896 -0.05260642
000300 69 b5 7c bd ef 74 31 3e 6e a9 ee 3d 69 04 cb bc
       -0.061696444 0.17329763 0.1165341 -0.024782376
000310 8c 6b 8a 3d c3 a6 91 ba 93 5a 51 bd e2 46 f6 3d
       0.06758794 -0.0011112321 -0.05111177 0.120252386
000320 ef 33 b1 3d 1b 87 62 3d 4f c3 00 3e 8d 71 7c 3d
       0.08652484 0.055304628 0.12574504 0.061631728
000330 4a ff 67 bd 9e a8 16 3d ca f9 6a 3d d5 05 84 3c
       -0.056639947 0.0367819 0.057367124 0.016116062
000340 3f e4 b0 bd 1e 80 38 3d ce 34 ca bd 88 82 9d bd
       -0.086372845 0.045044057 -0.09873353 -0.076909125
000350 f3 62 14 3d a7 34 03 3d 87 9f 3f 3d 1b 98 89 3c
       0.036227178 0.032032635 0.046782997 0.016796162
000360 dc 55 ee bc a3 8a 9d bd 8f ee c0 3d c3 20 cf 3d
       -0.029093675 -0.076924585 0.094205014 0.10113671
000370 56 1b c9 bc af 60 1b 3e 41 37 b7 3d 77 4a 6e bd
       -0.024549168 0.151736 0.08946086 -0.058176484
000380 ca 7e b0 3d a1 09 75 bd a3 91 92 3d 5f 13 a6 bd
       0.08617933 -0.059823636 0.07156684 -0.081091635
000390 d7 73 1d bd 4e 8a 20 bd 82 ed a3 bc 2f c3 57 3d
       -0.03844055 -0.039194398 -0.020010713 0.052676376
0003a0 86 58 1d 3d a6 07 b0 bc 34 e7 5c 3e 7f a4 2b bd
       0.0384145 -0.021488022 0.21572572 -0.041904923
0003b0 4c cb 18 3e 9b ac b8 bd 1c dd 0b bd 1f ad 3a 3e
       0.14921302 -0.09017297 -0.034146413 0.18230103
0003c0 cd b4 39 3d ea aa 1b 3b 2e 4c 74 bd 48 84 e6 bb
       0.04533844 0.0023752996 -0.059642963 -0.007034812
0003d0 46 b2 c4 bd 4d 67 6e 3c 19 4e fb 3d 8d ef 35 3e
       -0.096043155 0.014550996 0.12270755 0.17767163
0003e0 73 03 73 bd 8d b4 7d bc d0 1d 91 bd 7f b9 20 3d
       -0.05932946 -0.015484941 -0.070857644 0.039239403
0003f0 0c cb 22 3e ca 96 28 3d 7c 35 9b 3d 31 01 89 bd
       0.15897769 0.04115943 0.07578561 -0.0668968

fc2.bias f4 [64]
000000 9c 1e 1b be 94 0f f5 bc 67 66 0a bd b8 90 3e bd
       -0.15148395 -0.029914655 -0.033789065 -0.046524733
000010 72 8f 69 3e 6a ce f4 3b 12 43 58 3e 01 cc 4c bd
       0.22808626 0.0074708955 0.21119335 -0.04999924
000020 0f 6d 9e bd 50 44 d8 bc f7 82 43 bd fd 03 fe 3d
       -0.07735645 -0.026399761 -0.04773232 0.124031045
000030 37 0b d2 ba 4c fb 7d 3e c7 3e 16 be 4e 89 ca bd
       -0.0016025071 0.24802893 -0.14672385 -0.0988947
000040 02 1e 28 3e a2 e2 93 3d 90 d1 9e bd 3e 68 b2 3c
       0.16417697 0.07220961 -0.077548146 0.021778222
000050 0e af ae bd c7 25 e8 bc 99 4d d8 3d 00 fa 59 3e
       -0.08529483 -0.028338326 0.105616756 0.21286774
000060 e9 31 a9 3c 27 65 a9 bc 67 0f cf bd e2 3c 59 bb
       0.020653682 -0.020678116 -0.1011036 -0.0033147861
000070 16 94 a8 bd 98 e1 3c bd a4 31 95 bd ef 58 32 bd
       -0.0823137 -0.04611358 -0.07284859 -0.043541845
000080 41 53 99 bd fa 45 ea bd 1f 88 09 3e a0 9e 1e bd
       -0.074865825 -0.11439128 0.13430832 -0.038725495
000090 cd e4 16 bb 4f db 1c bd 50 26 32 bd b2 1b f2 bc
       -0.002302456 -0.038295086 -0.04349357 -0.029554222
0000a0 e8 d2 3b 3e 41 eb 03 be 5e f1 82 bb a0 a8 bb 3d
       0.18342173 -0.12882711 -0.0039960584 0.09163022
0000b0 82 bc a8 bd ec ce bb 3d 03 7c a2 bd e0 04 61 bd
       -0.0823908 0.091703266 -0.079338096 -0.05493629
0000c0 29 83 05 bd 98 06 7f bd 77 79 26 bc c2 c9 eb b9
       -0.032595787 -0.062262148 -0.010160795 -0.00044973014
0000d0 81 28 75 3e 9e 58 53 bd 8c 48 06 3e 4d 9b 21 bd
       0.23941232 -0.051598184 0.13113612 -0.039454747
0000e0 3a 17 71 3e 27 46 a2 bd 5c 8f 37 bc 90 f3 5e 3e
       0.23544016 -0.07923537 -0.011203613 0.21772599
0000f0 65 d7 0e be 98 d6 04 3d 74 5c 8d 3c 1b a7 32 bb
       -0.13949354 0.032431215 0.017256 -0.0027260247

fc3.weight f4 [32, 64]
000000 9d d7 06 3e c4 45 10 3e 48 f1 94 3d ef eb 1c bd
       0.13168187 0.14089113 0.07272583 -0.03831094
000010 a4 6f db bd 1e 0f 30 3c 36 df 50 bd 21 08 0c 3e
       -0.10714653 0.010745792 -0.05099412 0.13674976
000020 70 92 e5 3c 81 f5 89 3e b2 84 9a 3d 1f 56 8c bd
       0.028023928 0.26945117 0.07544841 -0.06852364
000030 2f 3c b9 3e bd 0e 03 be b8 b3 b6 3d ca f3 6b 3e
       0.3617873 -0.12798591 0.089209974 0.23042217
000040 de b0 67 bd 9e e5 5a bd 08 d8 d8 3c 11 b0 14 3e
       -0.056565158 -0.053441636 0.0264702 0.14520289
000050 90 8d c6 3c 2a d0 c0 3c 7c 8b 08 bd 9d 57 fd bd
       0.024237424 0.02353676 -0.033336148 -0.123702265
000060 36 ff a4 bd 1e ce 5a bd 5f 9c 6e 3e 6e 16 ec 3c
       -0.0805649 -0.053419225 0.23301838 0.028819289
000070 3c da 41 3e 6a cf 2f 3e 83 57 aa ba 45 01 64 3e
       0.18930906 0.17168966 -0.0012996051 0.2226611
000080 3b c4 66 3e d7 7e ea 3d 8f 61 cc bc f0 d8 82 3e
       0.22535793 0.11449974 -0.024948863 0.25556135
000090 3c 6d db 3a b6 86 d9 3d 77 01 40 bd 8f 4c 56 3e
       0.0016740928 0.10621397 -0.046876397 0.20927642
0000a0 32 80 da bd aa 32 54 3e 1b e3 11 3e 2c 5d f3 3d
       -0.106689826 0.20722452 0.1424679 0.118830055
0000b0 d1 e6 24 3c f3 60 e4 3d 72 71 3e 3e cb 0e a4 3c
       0.010064797 0.11151304 0.18597963 0.020026585
0000c0 e3 f6 53 3b 55 bc 68 3e 67 7d ec 3d ad 22 ea 3d
       0.00323432 0.22728093 0.11547356 0.11432395
0000d0 5d 0d 8e bd 84 52 e7 3d c0 7f 45 3d b1 6f 2e 3d
       -0.069361426 0.112950355 0.048217535 0.042586986
0000e0 68 f8 cc bd 29 7e 0d 3e c8 84 ce 3d 3c 40 90 3b
       -0.10008317 0.13817658 0.1008392 0.0044021886
0000f0 63 42 c5 3d 3f c8 94 3d a1 ab 00 bd 73 4c 6f bc
       0.09631803 0.072647564 -0.031413678 -0.014605629
000100 71 63 3e be 4e 16 08 be cb 97 b9 bc 33 cc 84 3c
       -0.18592621 -0.13289759 -0.022655388 0.016210651
000110 97 29 67 3d 59 06 ba 3c 4c 52 bd 3d 55 4d a5 bc
       0.056436148 0.022708105 0.092442125 -0.020178476
000120 b4 4d 4c be 9d dc c9 3b d3 b2 37 bd 93 ff 45 3e
       -0.19951516 0.0061603324 -0.044848274 0.19335775
000130 b1 99 cb bd 98 d3 30 3e a9 bb 97 bd a1 e7 18 be
       -0.09941424 0.17268217 -0.0740884 -0.1493211
000140 f7 2b 29 3e d1 65 8c 3e af e1 94 bd 39 d8 ba bd
       0.16520678 0.2742143 -0.07269608 -0.091232724
000150 74 0f e1 3c 4e 2b c0 3b 51 23 93 3d 4a b2 5c 3e
       0.027473189 0.0058645373 0.071844704 0.21552387
000160 ae 94 cb 3d 54 f2 9b 3b a7 a6 93 3d 2d 13 90 bc
       0.09940468 0.0047591124 0.07209521 -0.017587269
000170 00 a8 0e bd 21 73 0f bd a5 b8 aa 3c d8 e0 07 bd
       -0.034828186 -0.035021905 0.020839998 -0.033173412
000180 fe 1c f0 bd 4a 9a 62 be 6a a9 fd 3d 6f dc a2 bd
       -0.1172428 -0.22129169 0.12385829 -0.079522006
000190 9b 67 63 3d 77 60 10 be d5 4c b8 bc d5 79 0e 3d
       0.055518728 -0.14099298 -0.022497574 0.034784157
0001a0 39 50 f9 3d 02 26 70 be 7a 21 55 bd d7 4d e6 3d
       0.121735044 -0.23451999 -0.05203388 0.112453155
0001b0 38 b0 06 be 32 58 d7 3d 26 07 1a be 5b 54 e5 bd
       -0.1315316 0.10514869 -0.1504179 -0.1119773
0001c0 3b 4f 11 3d d3 09 3d 3d 23 55 0d be de 7b 45 bd
       0.03547595 0.046151947 -0.13802008 -0.048213832
0001d0 ec a2 92 3e cb 17 54 bd 2b 5c 2a 3d a4 77 1b bd
       0.28639925 -0.051780503 0.041591804 -0.037955895
0001e0 3a 4d 0b 3e 6d 60 5a 3c e6 c7 83 bd 0c 7a 38 3e
       0.13603678 0.013328654 -0.06434612 0.18015307
0001f0 67 b8 15 be 6b 12 07 bd cf 79 8b 3c 4e 61 ea bd
       -0.14621125 -0.03297655 0.017025856 -0.11444341
000200 98 07 2c be 98 30 51 bc ed 34 d7 bc 11 31 01 3d
       -0.16799772 -0.012767933 -0.026270354 0.031540934
000210 93 0e 4a 3e 02 7e 1b bc d6 a5 98 3d 04 7e 32 3d
       0.19732122 -0.009490492 0.07453506 0.04357721
000220 e6 fc 3f be 60 03 4d 3d 4d f2 3f bd b3 6c 41 3e
       -0.18748817 0.050052047 -0.046861935 0.18889122
000230 ef fc 87 bd 3d db 8a 3e 64 21 b8 bd 70 ea 04 be
       -0.0664004 0.2712039 -0.08990744 -0.12980056
000240 72 fc ed 3d ba 59 8c 3e 6c 54 ac bd 66 99 63 bd
       0.11620416 0.27412206 -0.0841454 -0.055566214
000250 e9 8c 8a 3c 96 66 00 3d 46 0a 20 3e 5a 33 44 3e
       0.016912894 0.031347834 0.15628919 0.19160214
000260 a6 14 82 3e 4d 8f 89 3b df 55 81 3c 18 9d c5 bd
       0.25406379 0.004197991 0.015788017 -0.09649104
000270 ea af 31 be 3f be 17 bd 4a 70 53 bc e5 7e 6e bc
       -0.17352262 -0.037046667 -0.01290519 -0.014556621
000280 8c 05 d5 bd 06 d0 b9 bd 81 29 6b 3e 3a 98 82 bd
       -0.104014486 -0.090728804 0.22965051 -0.06376691
000290 0f 43 19 3d 4d f6 43 be fa be c8 3c 69 ae 11 3e
       0.037417468 -0.19136925 0.024505127 0.14226688
0002a0 7c ff 0d 3e 86 8d 8e bd 56 67 c7 bc e0 fd eb 3d
       0.13866991 -0.06960587 -0.024341267 0.11523032
0002b0 5c 8c 0b be a6 4a 3e 3d f2 4a 28 bd ec 5d 34 bd
       -0.13627762 0.04645791 -0.0410871 -0.044034883
0002c0 66 66 bc 3c ea 7e 00 bb fc 99 98 bc 0d 81 67 bc
       0.022998046 -0.0019606897 -0.018628113 -0.014129889
0002d0 9a b7 87 3e a8 8a 77 3d c4 a0 b2 3d 73 b1 a1 3c
       0.26507264 0.060434967 0.0872207 0.019737935
0002e0 f3 03 67 3e e0 73 12 be f6 72 74 3b ff 33 7a 3e
       0.225601 -0.14302015 0.0037299967 0.24433897
0002f0 18 fb 29 be 98 99 30 3c 93 ed 86 3d 58 a8 dc bd
       -0.16599691 0.010778807 0.065882824 -0.107742965
000300 16 3a 3e bd c1 e6 f8 bd 19 0c 23 bd 6f c2 1f 3c
       -0.046442114 -0.12153388 -0.03980646 0.009750946
000310 84 c8 1b 3e a5 0f 80 3c 84 42 1e 3d df 7f 2c bc
       0.1521321 0.01563246 0.038637653 -0.010528534
000320 1d 3d b6 bd 7a aa 0b be d2 04 ec bd 4d d6 36 3e
       -0.08898375 -0.1363925 -0.11524357 0.17855187
000330 c3 bf d9 bd 2e 4a cc 3d 57 0d 1c be 1c 8c 83 bd
       -0.10632279 0.09975086 -0.15239464 -0.06423208
000340 92 a0 96 3d a5 ac 83 3e a5 4a a5 bd 4a 04 0a bd
       0.07354845 0.25717655 -0.08070878 -0.033695497
000350 0e c8 83 bb 1f ef 9f 3c 3c c7 be 3c 39 7a 0f be
       -0.004021651 0.019523202 0.023288362 -0.14011468
000360 56 07 a0 3d f2 3f 28 3c 74 fb 6c 3d 4d e0 6f bd
       0.07813899 0.010269152 0.057856992 -0.05856352
000370 b8 7d b5 bc 59 71 60 bd 93 5b 2f 3c af 95 8a bc
       -0.022154674 -0.054795597 0.010702985 -0.016917078
000380 e5 10 85 bd ed 46 6e bd 6c 0a 8b 3e 71 ee 0e bd
       -0.06497363 -0.05817311 0.2715639 -0.034895364
000390 8d a9 85 3d 79 27 12 be 2e 14 d2 bd 00 b1 87 3d
       0.0652648 -0.1427287 -0.10257755 0.06625557
0003a0 76 86 ca 3d a3 b7 e3 bd 29 08 3d bd 25 e2 8d 3d
       0.09888928 -0.1111901 -0.04615036 0.06927899
0003b0 04 95 2f be 28 e2 66 3d 74 24 b3 bd 35 c2 fc bc
       -0.17146689 0.056368023 -0.08747187 -0.030854324
0003c0 e7 fb 3a 3c cb 13 84 bc 5d 0f 80 bd f7 2f 66 bd
       0.011412597 -0.01612272 -0.0625293 -0.056198087
0003d0 c2 a4 84 3e 7f 85 08 bd a8 55 06 3c 33 0b 0c be
       0.2590695 -0.033330437 0.008199133 -0.13676147
0003e0 5b b3 51 3e 55 e8 ca bd f9 2c 00 be 71 63 4e 3e
       0.20478575 -0.09907595 -0.12517156 0.20155121
0003f0 65 8b 5f bd 19 50 85 3c 1f 21 b9 3c bd f4 a6 bd
       -0.054576296 0.016273545 0.022598801 -0.08152149

fc3.bias f4 [32]
000000 d5 03 1f bd 92 97 8f 3e f8 9d 97 3e c8 51 22 3e
       -0.038822014 0.28045326 0.29612708 0.1585151
000010 e4 23 34 3c f0 c8 9c 3e a6 80 62 3e 7f 92 a8 3e
       0.010994885 0.30622053 0.22119388 0.32924268
000020 a5 0d e3 bc 4a 69 09 3d d4 cf d8 3e 89 a0 97 3e
       -0.027716467 0.033547677 0.4234606 0.29614666
000030 e8 24 41 3d 21 05 a0 3e 25 f0 6f 3d 22 f8 22 3c
       0.047154337 0.31253913 0.05857863 0.009946855
000040 93 7c ad 3e 76 28 62 3e 24 ae 3a 3b 14 3e a8 3d
       0.33884105 0.22085747 0.0028485144 0.082149655
000050 2e df c1 3d ed 83 44 3d ec df ca bc ec 1f 82 3e
       0.09466396 0.047977377 -0.024764977 0.2541498
000060 5a 16 6f bd 2f 50 9e bc 94 54 c6 3d ef fb 98 3e
       -0.058370925 -0.019325344 0.09684101 0.2987971
000070 62 8b ad 3e 0f 9f 93 bd 96 88 ff 3c 46 d8 ff bd
       0.33895403 -0.072080724 0.031193059 -0.12492423

fc4.weight f4 [1, 32]
000000 5d 56 13 be fb a6 9d 3e 84 6e 78 3e 6c 8d 88 3e
       -0.14388414 0.30791458 0.24260908 0.26670396
000010 78 09 79 be fc a1 92 3e 13 7f 97 3e dd d5 80 3e
       -0.24320018 0.2863921 0.29589137 0.25163165
000020 0b bd 32 3c ff d0 6c be 4f fe 6f 3e a6 68 89 3e
       0.010909329 -0.231266 0.23436855 0.26837653
000030 8d c2 c7 bd 6d d3 9b 3e d0 ce 57 be 88 9a e4 3c
       -0.097539045 0.30434743 -0.21074986 0.027905717
000040 b0 aa 94 3e e5 1a 9d 3e 63 32 2b be 72 09 30 be
       0.29036474 0.3068458 -0.1671844 -0.17191103
000050 25 e9 66 be e5 16 dc 3d 8a 15 75 be c8 92 66 3e
       -0.22549875 0.10746554 -0.23933998 0.2251693
000060 ee 6a 2f be 8d c9 6f be 81 3b 4d 3e 8e 9a 91 3e
       -0.17130634 -0.2341673 0.2004223 0.28438228
000070 89 ed 4b 3e 40 23 60 be 9f 60 35 be 62 43 57 be
       0.19914831 -0.21888447 -0.1771264 -0.21021798
